rl_exercises/week_7/snapshot_q_5000.pt (torch, 21621 bytes, 6 tensors)

net.fc1.weight f4 [64, 4]
0.124241665 0.18980391 -1.0625954 -0.3387124 -0.039666947 0.23402767 -0.122874536 0.29180285
0.16110958 -0.022311099 -1.1988302 -0.06835514 -0.91033614 -0.24233201 0.6792731 0.0037418674
0.29529682 0.29111472 -1.0444305 -0.25835717 0.21328096 0.40889284 0.006753892 0.372209
-0.050295763 -0.08354433 0.80129635 -0.3440897 0.0009452016 -0.11360768 -0.91278064 0.3519572
-0.29405132 -0.35289407 -0.22008677 -0.3478988 -0.8064034 0.40342987 1.1435205 0.34930664
0.18349156 -0.37467405 -0.5427798 -0.3955614 -0.105760075 -0.26314783 -0.31471562 0.23216172
0.14233936 0.05467472 -0.35299176 0.35600284 0.29048744 0.036974475 0.67484623 -0.26764387
-0.08267309 -0.44943786 -0.41922143 -0.25313377 0.2504403 0.24822134 -0.5091903 0.16575141
0.40621752 -0.10103506 0.14435557 0.15973154 0.32377744 0.39190525 0.023321759 -0.09006316
-0.3563417 0.51702017 1.4509194 0.4459024 0.0051645036 -0.4903193 -0.024736626 -0.23740074
-0.4498281 0.37057564 0.72481877 -0.44317558 0.4288429 -0.20240949 -1.2573241 -0.23842736
0.5788897 -0.21157639 -0.4341153 0.13253039 0.35302663 0.0048087444 -0.325444 -0.18195826
0.07357761 -0.061972238 0.10906263 -0.102773435 0.58620155 0.24428788 -1.0603282 -0.11747683
-0.13106047 -0.12516128 -1.3351746 -0.34777138 0.013624657 0.13217017 -0.033599373 0.24209283
-0.4184322 0.34647664 0.8982526 -0.30351445 -0.11652854 0.014343447 0.11110547 0.11212374
0.40091902 0.07587295 -0.39133242 0.1863074 -0.4881412 -0.3389858 -0.051340878 -0.21112953
-0.45299667 -0.2780002 0.6031544 0.030161446 -0.06216181 0.073624305 0.56054515 -0.17767847
-0.29040977 -0.038970996 0.9216764 0.39866066 0.5131687 0.29657438 0.76150614 -0.02204383
-0.35121143 -0.16482285 0.4271613 -0.09915943 -0.024627786 -0.48266867 -1.2349721 -0.35641518
-0.23409079 0.1780587 0.85738534 -0.3635791 0.31189102 -0.39125472 -0.10570514 -0.20273632
-0.11492947 -0.25892812 -0.2100409 -0.26601726 -0.60923195 0.015653573 0.7517813 0.25398442
-0.3810762 -0.070661575 0.6952536 -0.1633429 0.44718793 0.24803227 0.0013441639 0.29844388
0.3463589 -0.3448539 -0.6525613 -0.37627602 0.12565729 -0.01407148 0.31272808 0.022117082
0.43279046 0.035793748 -1.1613684 -0.0883257 -0.28877842 0.41691303 0.6765367 0.19337654
-0.43710995 -0.059654407 -0.04386163 -0.19034521 -0.30853748 0.1536519 -0.2807669 0.0063128853
-0.023799345 0.20133805 0.06597432 -0.21671821 -0.1869626 0.41666168 -0.19149208 0.34215802
0.23166376 0.020292044 0.0328188 -0.07450406 0.3107556 -0.16416776 -0.54208994 0.10180808
-0.30107313 -0.3270795 -0.13887753 -0.3929051 0.20041741 0.4292953 0.23724282 0.048375398
-0.49335277 0.1020197 -0.10370687 -0.0014617738 -0.36733517 -0.049785603 0.74102294 0.4755556
0.090003744 0.3915665 0.7145281 -0.26265502 0.46877986 -0.33951673 -0.6267519 0.09976261
0.28127483 0.26980942 -0.9765619 0.03142207 0.4995062 -0.58086485 -0.6028233 -0.37421444
0.09306601 -0.06995223 -0.5556248 0.017540038 0.5231292 -0.21888104 -0.42031503 -0.11740262
00000000: 6a72 fe3d f55b 423e 2003 88bf b66b adbe
00000010: cf79 22bd f3a4 6f3e a5a5 fbbd 2f67 953e
00000020: e9f9 243e c4c5 b6bc 4573 99bf c8fd 8bbd
00000030: ca0b 69bf e225 78be d8e4 2d3f 1e3a 753b
00000040: 2531 973e fd0c 953e e6af 85bf 6447 84be
00000050: 5366 5a3e 675a d13e c14f dd3b 2e92 be3e
00000060: ee02 4ebd 4a19 abbd c221 4d3f 862c b0be
00000070: 68c7 773a 25ab e8bd feab 69bf bc33 b43e
00000080: e58d 96be 88ae b4be 6d5e 61be cb1f b2be
00000090: 7470 4ebf 5c8e ce3e e15e 923f 52d8 b23e
000000a0: 36e5 3b3e 47d5 bfbe 9ef3 0abf 0687 cabe
000000b0: bd98 d8bd 50bb 86be 6822 a1be cdbb 6d3e
000000c0: 69c1 113e 99f2 5f3d 56bb b4be 0146 b63e
000000d0: c5ba 943e 8c72 173d b9c2 2c3f 9e08 89be
000000e0: 8250 a9bd b81c e6be 31a4 d6be c09a 81be
000000f0: b639 803e bc2d 7e3e 4c5a 02bf bdba 293e
00000100: befb cf3e 78eb cebd f2d1 133e aa90 233e
00000110: 28c6 a53e cea7 c83e 460d bf3c 0973 b8bd
00000120: 6b72 b6be 6f5b 043f bab7 b93f 524d e43e
00000130: ff3a a93b 220b fbbe 77a4 cabc 2e19 73be
00000140: de4f e6be 17bc bd3e b98d 393f e9e7 e2be
00000150: 4c91 db3e 6f44 4fbe ffef a0bf 4d26 74be
00000160: 1e32 143f 7ba7 58be 5c44 debe 0cb6 073e
00000170: e8bf b43e ac92 9d3b 99a0 a6be 4453 3abe
00000180: dcaf 963d 9ad6 7dbd 3a5c df3d e17a d2bd
00000190: 4e11 163f 9a26 7a3e d6b8 87bf b197 f0bd
000001a0: b734 06be 472a 00be 00e7 aabf 170f b2be
000001b0: f439 5f3c 9e57 073e 7f9f 09bd 2fe7 773e
000001c0: bf3c d6be 6365 b13e e2f3 653f 3f66 9bbe
000001d0: 84a6 eebd c700 6b3c 448b e33d 22a1 e53d
000001e0: 4245 cd3e 4763 9b3d b95c c8be 5ec7 3e3e
000001f0: a5ed f9be 8c8f adbe d04a 52bd 5732 58be
00000200: 2eef e7be 0b56 8ebe 5468 1a3f 2315 f73c
00000210: 629d 7ebd 57c8 963d e37f 0f3f 58f1 35be
00000220: 97b0 94be 0da0 1fbd fcf2 6b3f 401d cc3e
00000230: 065f 033f 99d8 973e 11f2 423f 4395 b4bc
00000240: fcd1 b3be 52c7 28be e3b4 da3e 1914 cbbd
00000250: 36c0 c9bc 5920 f7be 9113 9ebf 0d7c b6be
00000260: 7fb5 6fbe 0555 363e 9b7d 5b3f 0a27 babe
00000270: 2eb0 9f3e 8a52 c8be f07b d8bd 1c9a 4fbe
00000280: 2460 ebbd 3a92 84be f614 57be 6a33 88be
00000290: a0f6 1bbf ec3b 803c bd74 403f 3f0a 823e
000002a0: 6b1c c3be 04b7 90bd 24fc 313f 5c43 27be
000002b0: d1f5 e43e 2cfc 7d3e a82e b03a a3cd 983e
000002c0: f455 b13e b190 b0be 420e 27bf 40a7 c0be
000002d0: 4eac 003e 118c 66bc e51d a03e e22e b53c
000002e0: b696 dd3e 779c 123d b8a7 94bf 1be4 b4bd
000002f0: c4da 93be a075 d53e 8231 2d3f 8004 463e
00000300: e0cc dfbe 2e58 74bd 41a8 33bd dbe9 42be
00000310: a0f8 9dbe ec56 1d3e aec0 8fbe 52dc ce3b
00000320: d8f6 c2bc 902b 4e3e 8b1d 873d 61eb 5dbe
00000330: 2073 3fbe ae54 d53e 8016 44be 562f af3e
00000340: 4439 6d3e 803b a63c 026d 063d 9695 98bd
00000350: 5c1b 9f3e 981b 28be 68c6 0abf c180 d03d
00000360: 4226 9abe f776 a7be e935 0ebe db2a c9be
00000370: 393a 4d3e 98cc db3e c8ef 723e 4825 463d
00000380: bc98 fcbe b4ef d03d 4464 d4bd fd98 bfba
00000390: 5b13 bcbe fdeb 4bbd aeb3 3d3f 067c f33e
000003a0: e253 b83d 677b c83e 50eb 363f b87a 86be
000003b0: ea03 f03e 23d5 adbe d072 20bf 5750 cc3d
000003c0: 4103 903e 7624 8a3e f6ff 79bf 6eb4 003d
000003d0: 47bf ff3e 8fb3 14bf a152 1abf 0999 bfbe
000003e0: 6499 be3d 1d43 8fbd 6d3d 0ebf 20b0 8f3c
000003f0: cceb 053f 5a22 60be 8833 d7be c970 f0bd

net.fc1.bias f4 [64]
-0.48134008 0.33368573 -0.22416787 -0.43797562 -0.21208924 0.36717874 0.33034983 0.45542347
0.2845958 -0.22829658 -0.14466569 0.27206862 0.55329853 0.2262949 -0.21504004 -0.27613473
-0.47686395 0.17632331 -0.3351391 -0.4452879 0.5076153 -0.28674743 -0.039604407 0.17282324
-0.07746353 -0.33591655 -0.3686012 0.49467647 0.112230375 0.44750547 -0.24083458 0.17778239
-0.22247466 -0.060512315 -0.3004338 0.2357735 0.19322301 -0.17487127 -0.09934004 -0.3082149
0.4576033 -0.34862736 0.31859443 -0.36076808 -0.23810217 0.10109951 -0.2625773 0.19408494
0.1846921 -0.38846245 0.10677964 0.3079993 0.30970612 0.016648479 -0.5227136 -0.07501909
0.2869205 -0.15114251 0.23178674 0.4821182 -0.3269476 -0.17964631 0.22683288 0.15945439
00000000: 3572 f6be dbd8 aa3e 438c 65be 573e e0be
00000010: ec2d 59be dafe bb3e 9d23 a93e 442d e93e
00000020: 8ab6 913e 94c6 69be 3e23 14be 944c 8b3e
00000030: f9a4 0d3f dab9 673e 7533 5cbe 8861 8dbe
00000040: 8327 f4be 198e 343e 5a97 abbe c7fc e3be
00000050: 14f3 013f 8fd0 92be 3b38 22bd 93f8 303e
00000060: 33a5 9ebd 41fd abbe 4cb9 bcbe 3c46 fd3e
00000070: 0ad9 e53d 701f e53e 579d 76be 960c 363e
00000080: 66d0 63be c3db 77bd 76d2 99be 9c6e 713e
00000090: 41dc 453e 7411 33be ca72 cbbd 58ce 9dbe
000000a0: fb4a ea3e 497f b2be cf1e a33e 98b6 b8be
000000b0: 0ed1 73be 430d cf3d 8870 86be 34be 463e
000000c0: ed1f 3d3e 8de4 c6be 49af da3d 16b2 9d3e
000000d0: cd91 9e3e 6462 883c 8fd0 05bf 9ca3 99bd
000000e0: 3ee7 923e 1ac5 1abe 8159 6d3e 32d8 f63e
000000f0: ad65 a7be 34f5 37be e146 683e 0348 233e

net.fc2.weight f4 [64, 64]
-0.08978398 0.0006909912 -0.26922312 0.15471832 0.054490816 0.11581423 0.016340096 -0.010910057
0.029316055 0.09324988 -0.18012653 -0.14283231 0.10797281 0.029637441 -0.047330953 0.19229117
0.19347036 0.0956249 0.26274475 0.10028528 -0.07185365 -0.21685192 0.12216115 0.059173644
-0.10942192 0.05954787 -0.057870917 0.047895532 -0.1355952 0.006330506 0.06678956 0.049691238
-0.011245348 0.055866048 0.10011657 0.0671966 -0.1099601 0.011443565 -0.16676193 0.028231874
-0.13049419 -0.12548783 -0.14294276 0.22571266 -0.0814686 0.11337638 0.042710904 -0.1667734
-0.13507916 -0.020197824 -0.12642588 0.06668948 -0.10860893 -0.07935842 -0.26287943 -0.1469918
0.06937747 0.12979905 0.049131215 0.07788712 0.032080658 -0.091906056 0.03217179 0.15156272
-0.12724221 0.2212039 -0.51506084 -0.12926973 -0.23493367 0.1765665 0.05016887 0.103702284
-0.0869213 -0.50295186 -0.3509654 0.17193061 0.19332272 0.0073247068 0.025246233 0.12953483
-0.08569377 -0.031358533 -0.6637016 0.11256858 0.069985874 -0.7809371 0.11077331 0.03022647
-0.07795333 -0.14874393 -0.40182182 0.092429616 0.10508836 0.1250692 -0.19155401 -0.0015219094
-0.058750354 0.072425514 -0.09582415 0.15554252 0.12268633 -0.5735871 -0.031595018 0.059935898
0.07217298 -0.16302115 0.05674756 -0.21561259 -0.463955 0.095539145 -0.4766292 0.19041638
0.097680114 -0.00849298 -0.13323306 0.070494056 0.054227997 -0.023366772 -0.26269522 -0.11335874
-0.08926553 -0.17911948 -0.022498978 0.19276132 -0.27081087 -0.6177704 -0.022701075 -0.06990124
-0.012190685 -0.14411408 0.07622052 0.06730543 0.1031553 0.024295406 -0.099013284 0.07292333
-0.009901047 0.059277058 -0.117698476 -0.067344 -0.15413582 -0.06757861 0.026966393 -0.129523
0.039845526 0.04672416 0.01741366 -0.08363542 -0.113539375 -0.079268105 0.023470642 0.10380049
0.05496693 -0.04121499 0.025682136 -0.16237508 -0.12356587 0.033132747 -0.10219686 0.04443943
-0.08824152 -0.061913863 -0.10296112 0.040143646 -0.018725177 0.07904131 0.0605048 0.06916782
-0.012790852 -0.03864725 -0.043619994 -0.014783813 0.044615764 -0.11896549 0.07291142 -0.04496842
-0.121537484 -0.06763223 0.093453005 0.07468547 -0.13955177 0.056765962 0.043873176 0.05379422
0.08928346 -0.06736879 0.02139879 0.019753022 -0.06458371 0.025528425 -0.07519463 0.04725719
-0.034681827 -0.07800813 0.03146863 0.012919157 -0.061071455 0.011049792 0.04103689 -0.043949857
0.0065309433 -0.030148372 0.012405232 -0.122056745 -0.10500239 -0.06344882 0.08350673 -0.033635512
-0.0003412962 -0.06056194 0.12478626 0.12208377 -0.1256281 -0.10133374 -0.124330185 -0.0006028414
-0.03186299 -0.08181821 -0.06403843 -0.0078653265 -0.06531134 -0.0037942757 -0.028664485 -0.092079654
-0.014259377 0.10278228 -0.08450991 0.0058043003 -0.077585764 0.09116921 -0.11859541 -0.11983265
0.091663085 -0.079086244 -0.0075210384 -0.010788262 -0.026332125 -0.057690527 0.07943007 0.0059746206
-0.15319046 -0.07379502 -0.042612538 0.03166442 -0.11225189 0.08650725 -0.027841166 -0.022445247
0.06645751 0.031748466 0.10601504 0.040796373 -0.03791924 -0.11436122 -0.04077238 0.07204871
00000000: aae0 b7bd a223 353a 9dd7 89be 7b6e 1e3e
00000010: c331 5f3d 0330 ed3d aadb 853c 19c0 32bc
00000020: 3928 f03c cbf9 be3d 1773 38be a242 12be
00000030: d920 dd3d 38ca f23c 1ade 41bd fae7 443e
00000040: 181d 463e fdd6 c33d 7b86 863e 5e62 cd3d
00000050: 0228 93bd 6e0e 5ebe a02f fa3d 1060 723d
00000060: 9918 e0bd 78e8 733d 0e0a 6dbd 1b2e 443d
00000070: 78d9 0abe 2270 cf3b f7c8 883d 0a89 4b3d
00000080: 683e 38bc ccd3 643d eb09 cd3d 5f9e 893d
00000090: c332 e1bd ca7d 3b3c a4c3 2abe 8846 e73c
000000a0: 45a0 05be e27f 00be 965f 12be 3821 673e
000000b0: 02d9 a6bd e031 e83d a1f1 2e3d a5c6 2abe
000000c0: 3152 0abe e875 a5bc c975 01be 7e94 883d
000000d0: 5c6e debd ab86 a2bd 2298 86be 0585 16be
000000e0: c615 8e3d 0bea 043e d03d 493d 4883 9f3d
000000f0: 0267 033d 3e39 bcbd 91c6 033d 4233 1b3e
00000100: c84b 02be 4683 623e 07db 03bf 495f 04be
00000110: 7492 70be d9cd 343e df7d 4d3d dd61 d43d
00000120: cb03 b2bd 74c1 00bf bdb1 b3be 940e 303e
00000130: 64f6 453e 1804 f03b 30d1 ce3c c7a4 043e
00000140: 3780 afbd ce71 00bd 59e8 29bf 5b8a e63d
00000150: c154 8f3d 7eeb 47bf 1edd e23d 819d f73c
00000160: ffa5 9fbd 5450 18be 97bb cdbe bd4b bd3d
00000170: 9138 d73d 2412 003e bc26 44be ce7a c7ba
00000180: 36a4 70bd d453 943d 743f c4bd 8a46 1f3e
00000190: f842 fb3d 9bd6 12bf c769 01bd 587f 753d
000001a0: 6dcf 933d 04ef 26be 2170 683d 8cc9 5cbe
000001b0: 828b edbe 07aa c33d be08 f4be 83fc 423e
000001c0: 830c c83d 2426 0bbc 3f6e 08be 305f 903d
000001d0: 2d1e 5e3d ac6b bfbc fd7f 86be a128 e8bd
000001e0: d9d0 b6bd 196b 37be c74f b8bc 3963 453e
000001f0: b9a7 8abe 3326 1ebf 9bf7 b9bc 6228 8fbd
00000200: 70bb 47bc a492 13be 8119 9c3d 6ed7 893d
00000210: 1643 d33d 2907 c73c 7ac7 cabd d458 953d
00000220: 0038 22bc 80cc 723d e60b f1bd a7eb 89bd
00000230: c8d5 1dbe a766 8abd a0e8 dc3c ada1 04be
00000240: 1035 233d d561 3f3d 18a7 8e3c 0c49 abbd
00000250: 5587 e8bd 5157 a2bd 8145 c03c 5a95 d43d
00000260: 0125 613d 0dd1 28bd 5863 d23c a745 26be
00000270: 1a10 fdbd 34b6 073d 964c d1bd 1f06 363d
00000280: f8b7 b4bd 6499 7dbd 48dd d2bd aa6d 243d
00000290: 8b65 99bc 69e0 a13d e2d3 773d dca7 8d3d
000002a0: b990 51bc 944c 1ebd e1aa 32bd ce37 72bc
000002b0: 05bf 363d 2ea4 f3bd 9552 953d ce30 38bd
000002c0: a5e8 f8bd c482 8abd 4a64 bf3d b2f4 983d
000002d0: a9e6 0ebe 6d83 683d 5cb4 333d 5457 5c3d
000002e0: 3fda b63d a6f8 89bd 844c af3c 17d1 a13c
000002f0: 7744 84bd fd20 d13c a4ff 99bd c190 413d
00000300: 880e 0ebd bac2 9fbd 40e5 003d dfaa 533c
00000310: 1026 7abd 300a 353c 4c16 283d c404 34bd
00000320: 8601 d63b b8f9 f6bc 503f 4b3c e3f8 f9bd
00000330: 7e0b d7bd 74f1 81bd 9405 ab3d 64c5 09bd
00000340: 00f0 b2b9 cc0f 78bd f08f ff3d 0e07 fa3d
00000350: a7a4 00be 1088 cfbd d3a0 febd 0008 1eba
00000360: c482 02bd 4e90 a7bd 9526 83bd 92dd 00bc
00000370: f4c1 85bd 62a9 78bb c8d1 eabc 4294 bcbd
00000380: 29a0 69bc 847f d23d 8813 adbd 0032 be3b
00000390: 49e5 9ebd ecb6 ba3d 26e2 f2bd d26a f5bd
000003a0: dbb9 bb3d f8f7 a1bd 0b73 f6bb 40c1 30bc
000003b0: 78b6 d7bc e74c 6cbd 3cac a23d c0c6 c33b
000003c0: f6dd 1cbe d821 97bd 7c8a 2ebd 8db2 013d
000003d0: 52e4 e5bd b72a b13d 2813 e4bc 18df b7bc
000003e0: e01a 883d ae0a 023d 6a1e d93d 191a 273d
000003f0: 3451 1bbd 3736 eabd f000 27bd 468e 933d

net.fc2.bias f4 [64]
0.06251103 0.1945388 -0.056404933 -0.10412414 0.084955245 0.028726727 0.11070333 -0.12594904
0.17299724 -0.19649921 0.031348694 0.08482647 -0.09350115 0.021508895 0.21881789 0.15525717
-0.0039089066 -0.053365696 0.17497125 -0.03818317 -0.07988667 -0.031077376 0.13621284 0.1906079
0.1634015 0.03862359 0.119728304 -0.050438304 0.16736865 0.07160298 -0.018712742 0.14770555
-0.06487679 -0.066287234 0.16576645 0.081259094 0.14092144 -0.08420344 0.015849475 0.097801596
-0.031474862 0.026083305 -0.004156325 0.19110213 0.008277761 0.1705934 0.15908872 -0.06606956
-0.03863836 0.120908454 0.059021614 -0.087656446 0.069896944 0.24021111 0.0022504928 -0.1168681
0.13106568 -0.071293436 0.06610229 -0.12860417 0.14062062 -0.03302421 -0.009718875 0.19242285
00000000: c805 803d 2e35 473e dc08 67bd 0a3f d5bd
00000010: 04fd ad3d 5054 eb3c 6db8 e23d c9f8 00be
00000020: 3026 313e 1737 49be 7d67 003d 80b9 ad3d
00000030: 887d bfbd 6c33 b03c cc11 603e bcfb 1e3e
00000040: 4916 80bb fd95 5abd aa2b 333e f565 1cbd
00000050: 9f9b a3bd fb95 febc 617b 0b3e b82e 433e
00000060: b952 273e c533 1e3d 1d34 f53d 6598 4ebd
00000070: b062 2b3e 95a4 923d 774b 99bc 2040 173e
00000080: 1fde 84bd 9ac1 87bd aebe 293e 2b6b a63d
00000090: b64d 103e da72 acbd c2d6 813c 344c c83d
000000a0: c9eb 00bd a8ac d53c c831 88bb 47b0 433e
000000b0: 729f 073c 09b0 2e3e 27e8 223e 7a4f 87bd
000000c0: 4243 1ebd da9e f73d a6c0 713d 3985 b3bd
000000d0: 2126 8f3d e7f9 753e 017d 133b 8b58 efbd
000000e0: 1536 063e 4b02 92bd a360 873d d0b0 03be
000000f0: dafe 0f3e 6544 07bd eb3b 1fbc 7f0a 453e

net.out.weight f4 [2, 64]
0.091511354 0.044853173 -0.05495673 -0.018535111 0.2166259 0.2210789 0.17273962 -0.033417434
0.22016814 -0.47679868 0.29015982 -0.11558969 0.08697866 0.077705935 0.16151406 0.11374641
-0.12779991 0.012328825 0.23216511 -0.16820006 0.06586773 0.03443525 0.31882977 0.21053034
0.25388363 -0.07687188 0.24843721 0.040947083 0.28142688 0.055365592 0.27183875 0.31727037
-0.0027803495 -0.102565035 0.28158802 0.23056608 0.067722626 0.05938596 0.20272353 0.036367793
0.020162048 0.0074032657 0.21766247 0.22193389 0.05350006 0.31947434 0.104328275 -0.010109716
-0.07748277 0.07262242 -0.09760862 -0.5994643 -0.09912612 0.36570147 0.026114592 0.016320078
0.20165122 -0.007011566 -0.015204492 -0.07680119 0.23410937 -0.04539704 0.019140756 0.3344772
-0.09991611 0.23776053 -0.07938735 -0.05179049 0.28623584 0.23115623 0.3625134 0.014957886
0.19783072 -0.6070247 0.26289016 -0.18306047 -0.09800729 -0.07637102 0.17692596 -0.13738328
-0.54629207 0.0834801 0.2437433 -0.12660937 -0.07654006 -0.00746107 0.22502099 0.17760967
0.17106625 -0.09720972 0.13784644 -0.023447061 0.3541397 0.18703474 0.2721728 0.18058717
-0.020949781 -0.111397505 0.31469202 -0.44763705 0.21153602 -0.035680905 -0.09493614 -0.08240024
-0.034296907 -0.014280259 0.15743446 0.25608146 -0.13583319 0.287246 0.33221635 0.0008045286
-0.07795526 0.0039980263 0.051317036 -0.06514788 -0.018111547 0.21046244 -0.045622077 -0.10544935
0.21646644 -0.049202453 -0.040455535 0.006123733 0.29740545 0.111141995 -0.07559995 0.3179184
00000000: 4e6a bb3d f6b7 373d 4f1a 61bd f2d6 97bc
00000010: 2ed3 5d3e 8262 623e a8e2 303e b8e0 08bd
00000020: c273 613e f51e f4be d48f 943e 4aba ecbd
00000030: de21 b23d 4a24 9f3d f163 253e e1f3 e83d
00000040: fbdd 02be d7fe 493c b1bc 6d3e a33c 2cbe
00000050: a9e5 863d fa0b 0d3d a83d a33e 4495 573e
00000060: 09fd 813e 016f 9dbd 5366 7e3e 21b8 273d
00000070: 2f17 903e 08c7 623d 732e 8b3e 4371 a23e
00000080: 8636 36bb 9e0d d2bd 4e2c 903e 8419 6c3e
00000090: 29b2 8a3d b13e 733d c296 4f3e 65f6 143d
000000a0: e12a a53c 1897 f23b e9e2 5e3e a342 633e
000000b0: e122 5b3d 2492 a33e 10aa d53d 39a3 25bc
000000c0: 49af 9ebd 10bb 943d 07e7 c7bd 7e76 19bf
000000d0: a302 cbbd 393d bb3e 45ee d53c afb1 853c
000000e0: a87d 4e3e 47c1 e5bb 431c 79bc f149 9dbd
000000f0: 5eba 6f3e 3ff2 39bd 13cd 9c3c 9840 ab3e
00000100: d1a0 ccbd 7f77 733e d695 a2bd 4422 54bd
00000110: 818d 923e 38b4 6c3e 5b9b b93e ec11 753c
00000120: 2394 4a3e f965 1bbf 8a99 863e 3474 3bbe
00000130: 0cb8 c8bd 6968 9cbd 142c 353e 34ae 0cbe
00000140: ccd9 0bbf 9df7 aa3d d897 793e e3a5 01be
00000150: 09c1 9cbd fe7b f4bb e76b 663e 4fdf 353e
00000160: fe2b 2f3e e415 c7bd 9e27 0d3e 0d14 c0bc
00000170: cc51 b53e 0986 3f3e 3c5a 8b3e d8eb 383e
00000180: e09e abbc 6024 e4bd 501f a13e af30 e5be
00000190: e69c 583e 2426 12bd e16d c2bd 75c1 a8bd
000001a0: ea7a 0cbd bff7 69bc 8036 213e 1c1d 833e
000001b0: db17 0bbe e811 933e 4318 aa3e 00e7 523a
000001c0: 02a7 9fbd e001 833b d031 523d 406c 85bd
000001d0: ab5e 94bc 7783 573e 37de 3abd d4f5 d7bd
000001e0: 61a9 5d3e 8388 49bd b4b4 25bd 98a9 c83b
000001f0: 8745 983e 6a9e e33d 26d4 9abd 33c6 a23e

net.out.bias f4 [2]
0.20525979 0.21754819
00000000: 9f2f 523e f4c4 5e3e
