rl_exercises/week_7/snapshot_q_50000.pt (torch, 21633 bytes, 6 tensors)

net.fc1.weight f4 [64, 4]
000000 77 de d2 3d b9 8b 61 bc bf 01 16 c0 77 39 81 be
       0.10296338 -0.013766223 -2.3438566 -0.25239155
000010 6e 15 0c be 5f d5 47 3e 17 e4 76 bd 24 d4 8c 3e
       -0.1368005 0.19514988 -0.060276117 0.275056
000020 49 46 51 3e 80 9b f2 3c 33 59 d0 bf ad 41 25 be
       0.20436968 0.029615164 -1.6277221 -0.16138335
000030 7a 0d 84 bf 04 4e 84 be 1b 45 48 3f 23 2b a0 bd
       -1.0316613 -0.2584077 0.78230447 -0.07820728
000040 22 20 cf 3d 30 f6 b3 3e 9a 8f 04 bf d9 07 5a 3e
       0.10113551 0.35148764 -0.5178162 0.21292056
000050 23 27 75 3e b5 7d 11 3f fa 72 34 3e 82 9e b7 3e
       0.2394071 0.5683244 0.17621985 0.3586312
000060 14 67 17 3e 37 7c 0b be bc 72 91 3f 57 6c 89 be
       0.14785415 -0.13621603 1.1363139 -0.2684047
000070 31 24 ca bc 20 f9 42 3d e2 81 5b bf ff 1a 52 3e
       -0.02467546 0.047600865 -0.8574506 0.2051811
000080 06 ee 51 3e ed 38 4c be d1 c3 38 be a4 c2 c4 be
       0.20500955 -0.1994359 -0.18043448 -0.3842975
000090 3b ec 37 bf ff 05 8f 3e 66 3a c2 3f 43 d6 b0 3e
       -0.71844834 0.27934262 1.5174072 0.3453847
0000a0 2a 73 05 3f cf bc 9c be 2d cf 0b c0 35 3e fe be
       0.5212885 -0.306128 -2.18452 -0.49656835
0000b0 13 21 45 be 35 02 70 be 7e a7 a5 bd 71 7e ed 3d
       -0.19250898 -0.23438342 -0.08088587 0.115963824
0000c0 8b eb 23 3d 69 c8 83 3d c0 57 8f be 33 42 9d 3e
       0.040019553 0.064347096 -0.27996635 0.30714568
0000d0 f8 be 81 3e 34 21 29 be f1 ee 05 3f e3 f9 18 be
       0.2534101 -0.16516572 0.5231772 -0.14939074
0000e0 f2 c2 15 be 4c 0a fe be c0 13 7f be 90 56 c5 be
       -0.14625147 -0.4961723 -0.24909878 -0.38542604
0000f0 2e ee 2e 3e 51 d5 5f 3d c5 22 79 bf 6e 4d 10 3d
       0.17083046 0.054646794 -0.9731868 0.035230093
000100 cf 68 07 3f db ed 5f 3d eb b6 73 3f 0d 09 7a 3d
       0.528943 0.054670196 0.95200986 0.061043788
000110 40 d5 3d 3e df 67 88 3e b4 f0 31 bf 27 24 b4 bc
       0.1853838 0.26641747 -0.6950791 -0.021989895
000120 e3 44 a5 be e5 f4 ac 3e 4d 26 d9 3f b3 c8 df 3e
       -0.3227912 0.3378059 1.6964813 0.4370781
000130 ea eb e4 bd 3b 25 08 bf d5 04 82 be 94 d8 a8 be
       -0.111778095 -0.5318181 -0.25394312 -0.32977736
000140 0d 56 71 be 09 42 80 3e 99 d8 21 3f b7 e4 03 be
       -0.23567982 0.2505038 0.63221127 -0.12880217
000150 34 bc b9 3e 3e 2b 7a bd 38 32 77 bf e6 5b 7a bd
       0.362764 -0.061076395 -0.96561 -0.061122797
000160 93 4a 53 3e 88 54 e0 be 04 e0 9d bf 03 d0 c0 be
       0.20633917 -0.43814492 -1.2333989 -0.376587
000170 11 cb 54 3e b3 bb b1 bd e4 ca ad be 38 dc 2e be
       0.20780589 -0.08678379 -0.33943856 -0.17076194
000180 93 2a 88 3e 70 6d b2 bd 70 72 fe 3e a5 3b d4 bd
       0.26594982 -0.0871228 0.49696684 -0.10362939
000190 98 26 fd 3e 71 b9 b2 3e 47 8b af bf ec 3e 40 bd
       0.49443507 0.34907106 -1.3714379 -0.046935007
0001a0 e7 38 e6 3e 46 bf 5b bd 4b ed f3 bf 44 a8 aa be
       0.44965288 -0.05364921 -1.9056791 -0.333315
0001b0 67 4c 84 bd 49 6e 0f 3e 3a 42 06 3d 4a cb 3f 3e
       -0.06459885 0.14006914 0.032778002 0.18729892
0001c0 3d df a6 bd a4 63 c4 3e bf f7 a7 3f 51 7c be 3e
       -0.08148048 0.3835727 1.3122481 0.3720422
0001d0 56 47 16 be e2 d0 6c 3d cd c0 14 3e 80 aa 29 3d
       -0.1467565 0.057816394 0.14526673 0.041422367
0001e0 e3 0b d4 3e 64 cb 0e 3e da ff 92 3e 8c 96 ac 3d
       0.4141532 0.13944775 0.28710824 0.08427152
0001f0 7a e1 9a be 94 7c 2b be 86 50 b4 3e 10 23 a6 be
       -0.3025015 -0.16746742 0.35217685 -0.32448626
000200 a2 9d 13 bf ff 8a 85 be b2 80 33 3f 73 68 27 bd
       -0.57662404 -0.26082608 0.7011825 -0.040871095
000210 24 48 e2 bd 12 b4 36 bc 94 e6 8e 3f 00 8b 15 3e
       -0.11048916 -0.011151331 1.1164117 0.14603806
000220 1d be 0b be 61 56 2e 3d 55 2d 14 40 a1 75 90 3e
       -0.13646741 0.042562846 2.3152668 0.28214744
000230 30 e0 6c 3e 9a a8 8b 3c df 73 b1 3f d5 64 a4 3e
       0.23132396 0.017048169 1.3863486 0.3210818
000240 0d e0 9a be e0 df 1b be 90 a9 7b 3f 3d 9f be bd
       -0.30249062 -0.1522212 0.98305607 -0.09307716
000250 0a a5 4a bd ef e7 ab be 1f 56 cc bf 27 74 b8 be
       -0.0494738 -0.3357539 -1.5963782 -0.36026117
000260 26 95 77 be fb bd b9 3d 9d 0e d7 3f 77 35 26 3e
       -0.2417799 0.09069439 1.6801335 0.16231333
000270 7f 2a 97 3e 9d 60 cb be 29 d9 bf bf 4f ae 0c bf
       0.2952461 -0.39722148 -1.4988147 -0.54953474
000280 8f 0b 4c 3d 64 b3 4c be 99 f9 60 be 51 95 95 be
       0.04981571 -0.19990307 -0.21970214 -0.29215482
000290 e1 9c 31 bf 24 82 aa 3d 65 49 6d 3f 0e db 1d 3e
       -0.69380003 0.083256036 0.92690116 0.15415594
0002a0 69 3d c9 be 16 80 cc bd 25 a5 b3 3f 13 88 b2 bd
       -0.39304665 -0.09985368 1.4034773 -0.0871736
0002b0 ad f8 f2 3e 58 aa c7 3e ab c6 46 3f 9a 49 bd 3e
       0.4745535 0.3899715 0.77646893 0.36970216
0002c0 4b 11 e3 3e 16 8f 75 be ff 0d 2e bf f8 40 65 be
       0.4434913 -0.23980364 -0.67990106 -0.22388065
0002d0 a3 17 c9 bc df 62 61 bc 08 50 57 3f 2a 01 9b bd
       -0.024547404 -0.013756483 0.84106493 -0.075685814
0002e0 66 e3 91 bd ee ca 33 be f4 0c e2 bf f9 45 41 be
       -0.07123451 -0.1755788 -1.7660203 -0.18874349
0002f0 cc 43 72 be 2d 83 86 3e 71 60 e8 3f 45 cf e0 3e
       -0.23658675 0.26271954 1.8154432 0.43908134
000300 50 27 15 be 04 b3 f7 bc 05 60 aa 3a 7c 07 45 3d
       -0.14565778 -0.030236728 0.0012998587 0.04810284
000310 f8 b7 8d be ab d6 3d 3e c7 ae 7f be fc 8d 0a 3d
       -0.2767942 0.1853892 -0.24969016 0.033826813
000320 0e a3 9f bc fd 12 78 3d 28 53 fa 3d 2a dd 71 bd
       -0.01948693 0.060564984 0.12222892 -0.05904881
000330 96 e3 82 be 51 b7 e6 3e d8 ec 66 be 76 5f 72 3e
       -0.2556426 0.45061734 -0.22551286 0.23669228
000340 29 3a 17 3e 11 e8 f8 bc db b0 30 be 1b 62 e1 bd
       0.1476828 -0.030384095 -0.17254965 -0.1100504
000350 1d f1 0e 3e 3a a9 2d be 3d cc 69 bf 94 24 c7 bd
       0.13959165 -0.16959086 -0.9132727 -0.097237736
000360 83 9a a6 be 14 8b c7 be bc 16 51 bf ea 03 a4 be
       -0.32539758 -0.38973296 -0.81675315 -0.32034236
000370 36 ee 17 3e e3 81 f7 3e 70 04 76 3e 7d cb 01 3e
       0.14836964 0.48341283 0.2402513 0.12675281
000380 6e da 90 be 65 7c 51 3e 80 e2 c2 3e 04 f7 fe 3d
       -0.2829165 0.20457609 0.3806343 0.12449458
000390 8b 6f e3 bd 33 2e a9 3d dd c7 ff 3f b5 64 be 3e
       -0.111052595 0.08260765 1.9982868 0.37186208
0003a0 31 5a 71 bd c4 ee 4d 3e 81 8f 2f 3f 02 a2 27 be
       -0.058923904 0.20110613 0.68578345 -0.16370395
0003b0 e9 70 d3 3e 92 79 83 be a0 11 2e bf fd 18 f7 bc
       0.4129708 -0.25678688 -0.67995644 -0.030163283
0003c0 df 3e 41 3e 17 3b 5e 3e e4 eb 46 bf 77 bf 1d 3e
       0.1887164 0.21702228 -0.7770369 0.1540507
0003d0 6c a2 17 3f dd 16 f0 be b0 59 04 bf e7 53 a2 be
       0.5923221 -0.46892443 -0.5169935 -0.31704637
0003e0 27 8a 61 3d 5e 9c 47 bc 47 9b 4c bf 8b 3d 9f bd
       0.055063393 -0.012183277 -0.79924434 -0.0777541
0003f0 a7 b4 c8 3e 85 02 9a be 34 18 2a bf f6 04 2e be
       0.39200327 -0.30080047 -0.6644318 -0.1699408

net.fc1.bias f4 [64]
000000 3d a0 00 bf 90 51 f7 3e f7 00 ab be c5 4a ff be
       -0.50244504 0.48304415 -0.33399174 -0.49861732
000010 ee 99 0f bf 4f 64 66 3e fc a2 02 3f 33 af 2e 3f
       -0.56094253 0.22499202 0.51029944 0.6823608
000020 86 04 0a 3f cd 9a 12 bf 3e 5e 19 bf bc 13 bb 3e
       0.5391315 -0.5726746 -0.5990943 0.36538494
000030 c2 7c 3c 3f 78 a3 c1 3e 55 c4 63 bd 2e f8 cf be
       0.73627865 0.3782003 -0.05560716 -0.40619034
000040 62 88 55 bf 33 15 74 be 02 22 22 bf e2 79 c6 3c
       -0.8341123 -0.23836212 -0.6333314 0.02422804
000050 9c 90 2d 3f 74 84 1b bf 48 bb 5b be f5 90 b8 3e
       0.6779878 -0.6074898 -0.21458161 0.36048093
000060 3b 15 06 bf 19 ea d6 be 2b 60 fb be 65 9d 30 3f
       -0.52376145 -0.41975477 -0.49096808 0.68990165
000070 d9 64 8d be f2 6d 21 3f 14 88 3e bf 16 a9 f3 3d
       -0.27616003 0.6305839 -0.7442639 0.11897485
000080 29 da 8c be b1 d2 56 be e1 7f dd be 82 89 9f 3e
       -0.27510193 -0.2097881 -0.43261626 0.31159598
000090 08 9a 8c 3e 05 9a d2 be 90 4d 93 be 21 f2 8d be
       0.27461267 -0.41133133 -0.28770113 -0.27723792
0000a0 48 d9 2c 3f 9b 2b 1a bf 5e 41 aa 3e 38 39 2e bf
       0.67519045 -0.60222787 0.33252996 -0.6805606
0000b0 d5 09 08 bf 48 06 72 3e 56 b8 e9 be ea 95 f2 3e
       -0.5314 0.23635209 -0.4564845 0.4738
0000c0 b5 86 66 3e 97 21 d7 be 2b c0 6e be d6 fb db 3e
       0.22512324 -0.42017815 -0.23315494 0.42965573
0000d0 27 ca 9f 3e 97 cc 4f 3e e7 93 6c bf 83 88 c2 be
       0.31208917 0.20292889 -0.9241318 -0.37994775
0000e0 36 db 66 3e 66 21 9c be 92 50 cc 3d 22 7f 3b 3f
       0.2254456 -0.3049423 0.09976305 0.73240864
0000f0 14 56 11 bf 6c 0b c3 be 60 83 d9 3e 9d 65 c9 3e
       -0.5677197 -0.38094652 0.42483044 0.39335337

net.fc2.weight f4 [64, 64]
000000 d8 f9 0c 3e 40 d6 4f be 13 f5 b5 bf ca c6 13 3e
       0.13767183 -0.20296574 -1.4215416 0.14431301
000010 ed 64 c8 3e ea 70 89 3d 44 d4 e1 3d 15 39 f3 bc
       0.391395 0.0671099 0.110268146 -0.029690305
000020 4d 87 9f 3e 7a bc 18 be ac c1 6d be cf 0b 4f bf
       0.31157914 -0.14915648 -0.23218411 -0.80877393
000030 44 cc f3 3c 76 a1 86 bc c5 9c 4c be 1f 31 06 bf
       0.029760487 -0.016434412 -0.19981678 -0.524187
000040 77 dd 9d 3e ae 2f 23 3f e0 40 8d 3f b1 ea 17 3e
       0.30833027 0.6374463 1.1035423 0.14835621
000050 af 38 c3 3d fe 13 91 bf ce e3 f5 3e e1 b7 b2 3e
       0.09532296 -1.1334226 0.48025364 0.34905913
000060 ab 8c 32 bf e9 e7 17 3f bd c9 6d 3e 69 b4 4a bc
       -0.6974589 0.5933824 0.23221488 -0.012372115
000070 aa b9 bd be 4d 9e c5 bd 79 c8 e9 3d 7f da a4 be
       -0.37055713 -0.09649334 0.1141519 -0.3219795
000080 21 c9 a5 3c 0e d1 6a 3d 02 ec a9 3e 06 6b 5a bf
       0.020237507 0.057328276 0.33187872 -0.85319555
000090 15 e3 71 bf ef 5f 81 3d a0 56 9f bd 22 dd 67 3f
       -0.94487125 0.06317126 -0.07780194 0.90571797
0000a0 dd 7e bb bc 20 03 84 be f2 19 67 bf a6 dd 6e bd
       -0.022887642 -0.25783634 -0.90273964 -0.05831685
0000b0 4f f3 96 be 34 11 f1 be 3a 7b c5 be 7e 5f 04 c0
       -0.29482505 -0.47083437 -0.38570577 -2.0683284
0000c0 7c 1d a7 be 71 b9 01 3c 19 8f 64 3d 52 a0 38 3b
       -0.32639682 0.007917748 0.05580053 0.002817173
0000d0 a8 77 47 bd 2a 31 d9 3c a8 99 2a bf f6 6a c6 3e
       -0.048698097 0.026512701 -0.6664071 0.3875348
0000e0 af 04 88 be 95 01 e9 3e 84 fd c6 3e 07 f5 82 3e
       -0.26566073 0.4550902 0.38865292 0.25577566
0000f0 4c 08 0c bf 4d a2 1d bf a7 b4 34 3e 9e 40 cc 3e
       -0.5470016 -0.61575776 0.17647038 0.3989305
000100 1e 4a 02 c0 09 59 d1 3e dd a4 26 c0 3e 14 e6 bd
       -2.0357738 0.4088824 -2.6038125 -0.1123433
000110 97 b5 08 bf 6d 72 6c 3e 4f 27 51 3e b2 71 b9 3e
       -0.53402084 0.23090525 0.20425151 0.36219555
000120 eb 2b 1d 3e ce 91 a8 be dd e3 35 c0 6a 5b 95 3e
       0.15348785 -0.3292374 -2.8420327 0.29171306
000130 dc 4b dc 3e dd 8b bd 3d 9e 2c 40 3e 43 d9 93 3e
       0.43026626 0.092551924 0.1876702 0.28876695
000140 6c 04 00 bf c3 b4 0d be 04 dc 63 bf 48 a6 7f 3e
       -0.5000675 -0.13838486 -0.8900759 0.24965775
000150 75 f5 2f 3e 9a 8c 20 c0 c8 be 9e 3d ff 38 41 3e
       0.17183478 -2.5085816 0.077512324 0.18869399
000160 6c ea 51 be 3b 8e d7 be 7b 48 4b c0 13 54 a4 3e
       -0.20499581 -0.421007 -3.1762989 0.32095394
000170 ff ab b2 3d 31 8b bb 3e b7 6b 35 bf f6 20 d1 3d
       0.08724212 0.36629632 -0.70867485 0.10211365
000180 6a db 3f 3d b3 6e 1a bf 07 2d 86 bf e3 19 d1 3d
       0.04684011 -0.60325164 -1.0482491 0.102100156
000190 33 c5 93 3e 6a 64 a9 bf cd 9c 0b bf b3 9e e8 be
       0.2886139 -1.3233769 -0.54536134 -0.45433578
0001a0 d8 dc aa 3e 1a 9b 6c be 24 48 39 3e 81 a7 78 be
       0.33371615 -0.23106042 0.18093926 -0.24282648
0001b0 69 45 09 c0 cd 33 32 3e ea 27 32 c0 bb c9 81 3e
       -2.1448615 0.17402573 -2.7836862 0.2534922
0001c0 1e a0 98 3e 53 d2 de bc 38 19 80 3d 10 65 7d 3e
       0.2980966 -0.0271999 0.0625481 0.24745584
0001d0 b3 a0 02 3e 43 8e 83 3d d4 e0 f4 be c6 0e a3 be
       0.12756614 0.06423619 -0.4782778 -0.3184721
0001e0 74 3a e5 3c d4 89 85 be a4 ac f5 3b b4 ec d9 3e
       0.027981974 -0.26081717 0.007497387 0.42563403
0001f0 bf c8 df be ed 4c 26 bf d6 d5 5d 3e 61 28 10 3d
       -0.43707845 -0.6496113 0.21663603 0.03519476
000200 70 bb 47 bc a4 92 13 be 81 19 9c 3d 6e d7 89 3d
       -0.012190685 -0.14411408 0.07622052 0.06730543
000210 16 43 d3 3d 29 07 c7 3c 7a c7 ca bd d4 58 95 3d
       0.1031553 0.024295406 -0.099013284 0.07292333
000220 00 38 22 bc 80 cc 72 3d e6 0b f1 bd a7 eb 89 bd
       -0.009901047 0.059277058 -0.117698476 -0.067344
000230 c8 d5 1d be a7 66 8a bd a0 e8 dc 3c ad a1 04 be
       -0.15413582 -0.06757861 0.026966393 -0.129523
000240 10 35 23 3d d5 61 3f 3d 18 a7 8e 3c 0c 49 ab bd
       0.039845526 0.04672416 0.01741366 -0.08363542
000250 55 87 e8 bd 51 57 a2 bd 81 45 c0 3c 5a 95 d4 3d
       -0.113539375 -0.079268105 0.023470642 0.10380049
000260 01 25 61 3d 0d d1 28 bd 58 63 d2 3c a7 45 26 be
       0.05496693 -0.04121499 0.025682136 -0.16237508
000270 1a 10 fd bd 34 b6 07 3d 96 4c d1 bd 1f 06 36 3d
       -0.12356587 0.033132747 -0.10219686 0.04443943
000280 f8 b7 b4 bd 64 99 7d bd 48 dd d2 bd aa 6d 24 3d
       -0.08824152 -0.061913863 -0.10296112 0.040143646
000290 8b 65 99 bc 69 e0 a1 3d e2 d3 77 3d dc a7 8d 3d
       -0.018725177 0.07904131 0.0605048 0.06916782
0002a0 b9 90 51 bc 94 4c 1e bd e1 aa 32 bd ce 37 72 bc
       -0.012790852 -0.03864725 -0.043619994 -0.014783813
0002b0 05 bf 36 3d 2e a4 f3 bd 95 52 95 3d ce 30 38 bd
       0.044615764 -0.11896549 0.07291142 -0.04496842
0002c0 a5 e8 f8 bd c4 82 8a bd 4a 64 bf 3d b2 f4 98 3d
       -0.121537484 -0.06763223 0.093453005 0.07468547
0002d0 a9 e6 0e be 6d 83 68 3d 5c b4 33 3d 54 57 5c 3d
       -0.13955177 0.056765962 0.043873176 0.05379422
0002e0 3f da b6 3d a6 f8 89 bd 84 4c af 3c 17 d1 a1 3c
       0.08928346 -0.06736879 0.02139879 0.019753022
0002f0 77 44 84 bd fd 20 d1 3c a4 ff 99 bd c1 90 41 3d
       -0.06458371 0.025528425 -0.07519463 0.04725719
000300 88 0e 0e bd ba c2 9f bd 40 e5 00 3d df aa 53 3c
       -0.034681827 -0.07800813 0.03146863 0.012919157
000310 10 26 7a bd 30 0a 35 3c 4c 16 28 3d c4 04 34 bd
       -0.061071455 0.011049792 0.04103689 -0.043949857
000320 86 01 d6 3b b8 f9 f6 bc 50 3f 4b 3c e3 f8 f9 bd
       0.0065309433 -0.030148372 0.012405232 -0.122056745
000330 7e 0b d7 bd 74 f1 81 bd 94 05 ab 3d 64 c5 09 bd
       -0.10500239 -0.06344882 0.08350673 -0.033635512
000340 00 f0 b2 b9 cc 0f 78 bd f0 8f ff 3d 0e 07 fa 3d
       -0.0003412962 -0.06056194 0.12478626 0.12208377
000350 a7 a4 00 be 10 88 cf bd d3 a0 fe bd 00 08 1e ba
       -0.1256281 -0.10133374 -0.124330185 -0.0006028414
000360 c4 82 02 bd 4e 90 a7 bd 95 26 83 bd 92 dd 00 bc
       -0.03186299 -0.08181821 -0.06403843 -0.0078653265
000370 f4 c1 85 bd 62 a9 78 bb c8 d1 ea bc 42 94 bc bd
       -0.06531134 -0.0037942757 -0.028664485 -0.092079654
000380 29 a0 69 bc 84 7f d2 3d 88 13 ad bd 00 32 be 3b
       -0.014259377 0.10278228 -0.08450991 0.0058043003
000390 49 e5 9e bd ec b6 ba 3d 26 e2 f2 bd d2 6a f5 bd
       -0.077585764 0.09116921 -0.11859541 -0.11983265
0003a0 db b9 bb 3d f8 f7 a1 bd 0b 73 f6 bb 40 c1 30 bc
       0.091663085 -0.079086244 -0.0075210384 -0.010788262
0003b0 78 b6 d7 bc e7 4c 6c bd 3c ac a2 3d c0 c6 c3 3b
       -0.026332125 -0.057690527 0.07943007 0.0059746206
0003c0 f6 dd 1c be d8 21 97 bd 7c 8a 2e bd 8d b2 01 3d
       -0.15319046 -0.07379502 -0.042612538 0.03166442
0003d0 52 e4 e5 bd b7 2a b1 3d 28 13 e4 bc 18 df b7 bc
       -0.11225189 0.08650725 -0.027841166 -0.022445247
0003e0 e0 1a 88 3d ae 0a 02 3d 6a 1e d9 3d 19 1a 27 3d
       0.06645751 0.031748466 0.10601504 0.040796373
0003f0 34 51 1b bd 37 36 ea bd f0 00 27 bd 46 8e 93 3d
       -0.03791924 -0.11436122 -0.04077238 0.07204871

net.fc2.bias f4 [64]
000000 75 95 c5 3d 5e 27 04 3f dc 08 67 bd 0a 3f d5 bd
       0.09647647 0.5162257 -0.056404933 -0.10412414
000010 94 71 ed 3e 38 04 0e 3e 09 bf e7 3e c4 0b 49 bd
       0.46375716 0.13868797 0.45262936 -0.049083486
000020 cb 53 e5 3e 1f a4 dc be 44 36 18 3e c7 a7 0b 3e
       0.4479049 -0.43093964 0.1486445 0.1363822
000030 88 7d bf bd 1d f3 ca 3b f8 84 03 3f c8 c5 9e 3e
       -0.09350115 0.006193532 0.5137477 0.3101027
000040 fa 32 22 be fd 95 5a bd 22 b3 fe 3e 98 53 9b bd
       -0.15839759 -0.053365696 0.49746042 -0.075843036
000050 9f 9b a3 bd fb 95 fe bc 7c e3 e0 3e 7d 43 f9 3e
       -0.07988667 -0.031077376 0.43923557 0.48684302
000060 e8 33 de 3e c5 33 1e 3d a9 56 d8 3e 65 98 4e bd
       0.43398976 0.03862359 0.42253616 -0.050438304
000070 9b 09 cc 3e 61 ef c0 3e 7a 68 df 3d 36 99 94 3e
       0.39851078 0.37682632 0.10908599 0.2902314
000080 a0 e4 c5 bd 9a c1 87 bd 29 81 01 3f 51 1f 57 3d
       -0.096627474 -0.066287234 0.5058771 0.0525201
000090 b6 0a f0 3e da 72 ac bd 05 67 64 3d 34 4c c8 3d
       0.46883172 -0.08420344 0.05576231 0.097801596
0000a0 c9 eb 00 bd a8 ac d5 3c bd 6f 8e 3e 02 a5 07 3f
       -0.031474862 0.026083305 0.27819625 0.52986157
0000b0 1a 42 11 3d 37 d5 f2 3e b4 7e 00 3f 7a 4f 87 bd
       0.03546343 0.47428295 0.50193334 -0.06606956
0000c0 42 43 1e bd da 9e f7 3d a6 c0 71 3d 9e da f6 bd
       -0.03863836 0.120908454 0.059021614 -0.12053417
0000d0 66 db 81 3d 80 7f c4 3e 17 d4 aa bc 25 81 34 be
       0.06340675 0.38378525 -0.020853085 -0.1762739
0000e0 6e c1 79 3e 4b 02 92 bd a3 60 87 3d d0 b0 03 be
       0.24390194 -0.071293436 0.06610229 -0.12860417
0000f0 12 2a 7a 3e 65 44 07 bd aa bf 93 bc 68 a6 c9 3e
       0.24430111 -0.03302421 -0.018035728 0.3938477

net.out.weight f4 [2, 64]
000000 b7 05 3e 3f dc ee d3 3e 4f 1a 61 bd f2 d6 97 bc
       0.7422747 0.41393173 -0.05495673 -0.018535111
000010 e1 1e 3d 3f 01 5c cf 3e 36 06 17 3f be 67 ba be
       0.7387524 0.4049988 0.5899385 -0.36407274
000020 6a a6 60 3f 5e c7 eb bf cb 5b ee 3e 38 a7 12 be
       0.8775393 -1.8420217 0.46554407 -0.14321601
000030 de 21 b2 3d 6f f3 dd 3d c2 4f 20 3f 91 3f 35 3f
       0.08697866 0.10837447 0.626217 0.7080012
000040 c8 11 b2 bf d7 fe 49 3c 38 a2 26 3f fc fa 6e bf
       -1.3911676 0.012328825 0.65091276 -0.9335172
000050 a9 e5 86 3d fa 0b 0d 3d 89 10 89 3f 3c 9f 29 3f
       0.06586773 0.03443525 1.0708171 0.662586
000060 20 fe 63 3f 01 6f 9d bd 63 1c 2d 3f 21 b8 27 3d
       0.8905964 -0.07687188 0.6762144 0.040947083
000070 f2 47 2d 3f 1d c0 19 3f 9a 13 dd 3e ff 38 f9 3e
       0.67687905 0.60058767 0.43179017 0.48676297
000080 86 36 36 bb 9e 0d d2 bd b5 ed 28 3f 3a 9e 9a 3e
       -0.0027803495 -0.102565035 0.6598771 0.30198842
000090 65 f4 d5 3e b1 3e 73 3d c7 43 0c 3f 65 f6 14 3d
       0.4178802 0.05938596 0.5479092 0.036367793
0000a0 e1 2a a5 3c 18 97 f2 3b 1d 04 52 3f 5d 5a f6 3e
       0.020162048 0.0074032657 0.82037526 0.48115817
0000b0 70 b4 98 bf a1 3f 74 3f 1b fc 12 3f 39 a3 25 bc
       -1.1930065 0.9540959 0.5741593 -0.010109716
0000c0 49 af 9e bd 10 bb 94 3d 07 e7 c7 bd b2 36 bb bf
       -0.07748277 0.07262242 -0.09760862 -1.4626067
0000d0 14 0a ca bd a2 97 53 3f e6 c6 16 bc ac f1 4e bb
       -0.098652035 0.8265325 -0.0092026945 -0.0031577153
0000e0 71 e1 bd 3e 47 c1 e5 bb 43 1c 79 bc f1 49 9d bd
       0.3708606 -0.007011566 -0.015204492 -0.07680119
0000f0 3c 85 a7 3e 3f f2 39 bd 89 8f a4 3b f8 4d 63 3e
       0.32718837 -0.04539704 0.0050219935 0.22197711
000100 62 29 9b bf 53 e1 37 3f d6 95 a2 bd 44 22 54 bd
       -1.2122004 0.7182819 -0.07938735 -0.05179049
000110 bd ce 34 3f 3c 0c bb 3e d1 88 45 3f 21 43 f9 3e
       0.7062796 0.36532772 0.7716189 0.48684028
000120 4b 0b 42 3f e9 b6 e5 bf a9 3f 01 3f 1e 80 76 bf
       0.7579848 -1.7946445 0.5048776 -0.9628924
000130 0c b8 c8 bd 71 8b 92 bd c7 2e 20 3f 85 99 d2 bd
       -0.09800729 -0.071555026 0.62571377 -0.10283188
000140 92 10 de bf 9d f7 aa 3d e4 af 30 3f e0 74 81 be
       -1.7348807 0.0834801 0.6901839 -0.2528448
000150 09 c1 9c bd fe 7b f4 bb 17 9c 2e 3f f8 ff 21 3f
       -0.07654006 -0.00746107 0.68206924 0.632812
000160 e0 64 34 3f e4 15 c7 bd 84 55 0c 3f 0d 14 c0 bc
       0.70466423 -0.09720972 0.54817986 -0.023447061
000170 2a 5f 6a 3f 03 58 6e 3f 6f 18 01 3f 62 f0 a6 3e
       0.9155146 0.93103045 0.5042791 0.32605273
000180 0a a5 30 3c 60 24 e4 bd c0 b9 24 3f 06 7c 5f bf
       0.010781536 -0.111397505 0.6434593 -0.8729862
000190 72 0a f4 3e 24 26 12 bd e1 5e ac be 75 c1 a8 bd
       0.4766422 -0.035680905 -0.33666137 -0.08240024
0001a0 ea 7a 0c bd bf f7 69 bc 3d f6 36 3f e4 d5 09 3f
       -0.034296907 -0.014280259 0.7146948 0.53841996
0001b0 09 ce f2 be f8 80 4a 3f 14 e0 54 3f 00 e7 52 3a
       -0.47422817 0.7910304 0.83154416 0.0008045286
0001c0 02 a7 9f bd e0 01 83 3b d0 31 52 3d ab a8 12 3c
       -0.07795526 0.0039980263 0.051317036 0.008951346
0001d0 ab 5e 94 bc 89 e6 25 3e d9 b2 85 bc 33 53 d0 bd
       -0.018111547 0.16201223 -0.016320633 -0.10172119
0001e0 35 03 e7 3e 83 88 49 bd b4 b4 25 bd 98 a9 c8 3b
       0.45119634 -0.049202453 -0.040455535 0.006123733
0001f0 47 49 2b 3f 6a 9e e3 3d 52 1f 84 bd ce ec 33 3f
       0.6690869 0.111141995 -0.064512864 0.7028321

net.out.bias f4 [2]
000000 c4 88 fc 3e 54 2e 0f 3f
       0.49323094 0.55930066
