rl_exercises/week_7/snapshot_q_25000.pt (torch, 21633 bytes, 6 tensors)

net.fc1.weight f4 [64, 4]
0	0x3deb1cf5	0.114801325
1	0x3d3d2926	0.04618182
2	0xbffd8600	-1.9806519
3	0xbea3e6b2	-0.32011944
4	0xbe0f7b26	-0.14011821
5	0x3e2562ad	0.16150923
6	0xbda10a9e	-0.07863353
7	0x3e8b3bfc	0.27194202
8	0x3d912f5a	0.0708911
9	0xbd2055f8	-0.039144486
10	0xbfb3fcf6	-1.4061573
11	0xbda5935a	-0.08084746
12	0xbf85e7be	-1.0461347
13	0xbe657e2b	-0.2241141
14	0x3f2878d2	0.6580936
15	0xbcfc44cc	-0.030794524
16	0x3da7a8ee	0.08186518
17	0x3ea4c940	0.32184792
18	0xbf3f8f2c	-0.7482784
19	0x3d9351b9	0.07193322
20	0x3e599074	0.2124651
21	0x3ef20645	0.47270408
22	0xbc9fceb7	-0.019507749
23	0x3eb0f854	0.3456446
24	0x3e0d3481	0.1378956
25	0xbe24e573	-0.16103153
26	0x3f8c7f81	1.0976411
27	0xbe97da5e	-0.29658788
28	0xbce82016	-0.028335612
29	0x3b58c8c6	0.0033078655
30	0xbf57adc6	-0.8424953
31	0x3e6e8886	0.23294267
32	0x3e48a2b2	0.19593313
33	0xbe6c2f26	-0.2306486
34	0xbe1a1941	-0.15048696
35	0xbed01c95	-0.40646806
36	0xbf303b0f	-0.68840116
37	0x3eb2bc89	0.34909466
38	0x3faa6f4d	1.3315216
39	0x3f0fa20b	0.5610663
40	0x3e758713	0.23977308
41	0xbec97de0	-0.39353848
42	0xbfe844dc	-1.8146014
43	0xbf09a4a0	-0.5376682
44	0xbe435e21	-0.19078876
45	0xbe81ea35	-0.25373998
46	0xbc5279f5	-0.01284646
47	0x3df20975	0.1181821
48	0x3d0e5741	0.03475118
49	0x3ceb1a30	0.02869901
50	0xbe960d17	-0.29306862
51	0x3ea00d44	0.3126012
52	0x3e6fcd13	0.23418073
53	0xbe3abfb0	-0.18237185
54	0x3ee91216	0.4552161
55	0xbe829219	-0.2550209
56	0xbdf821e5	-0.1211584
57	0xbf00e522	-0.5034963
58	0xbdf8e545	-0.12153105
59	0xbea2a393	-0.31765422
60	0x3e756355	0.23963673
61	0x3e17054c	0.14748114
62	0xbf8a3fd4	-1.0800729
63	0x3d34331a	0.043994047
64	0x3ef02a77	0.46907398
65	0xbdb0e595	-0.08637539
66	0x3f229925	0.6351493
67	0x3d87c33b	0.06629034
68	0x3d1a4c9e	0.037670724
69	0x3e10ba20	0.14133501
70	0xbeb23b12	-0.34810692
71	0xbe5abca2	-0.2136102
72	0xbe7e996d	-0.24863215
73	0x3ecf52a7	0.40492746
74	0x3fe0672d	1.7531487
75	0x3f00f750	0.5037737
76	0xbdb6fceb	-0.08934959
77	0xbf0cb177	-0.5495829
78	0xbd03d93d	-0.032189596
79	0xbea3b7fb	-0.31976303
80	0xbe761756	-0.2403234
81	0x3e84d05f	0.25940225
82	0x3f2df27a	0.67948115
83	0xbe864ec6	-0.26231974
84	0x3ebc6c38	0.36801314
85	0xbd84216d	-0.06451688
86	0xbf8c95ac	-1.0983176
87	0xbe0fc584	-0.1404019
88	0x3ea62c50	0.32455683
89	0xbebaf69d	-0.36516276
90	0xbf6c9e78	-0.92429304
91	0xbd0b6366	-0.03403034
92	0x3e3a37f3	0.18185405
93	0xbe04c7a6	-0.12966785
94	0xbea71a08	-0.32637048
95	0xbe6480f9	-0.22314824
96	0x3e8d488f	0.2759442
97	0xbda96a53	-0.08272233
98	0x3ec2452b	0.37943396
99	0xbe210d2c	-0.15727681
100	0x3ee0970f	0.4386525
101	0x3e1f0dc1	0.1553259
102	0xbfae576c	-1.3620429
103	0xbe38ba6e	-0.18039867
104	0x3e330a36	0.17484364
105	0xbe1b33ef	-0.1515653
106	0xbfd7d060	-1.6860466
107	0xbe9e080a	-0.30865508
108	0xbd845035	-0.06460611
109	0x3ddd223d	0.10797546
110	0x3cbdf590	0.023188382
111	0x3e434c89	0.19072165
112	0xbe34a5e1	-0.17641403
113	0x3e94db4a	0.29073554
114	0x3f88331d	1.0640599
115	0x3c59cca8	0.013293423
116	0xbe180148	-0.14844239
117	0x3ccc4aa1	0.02493793
118	0x3e14d3bd	0.14533897
119	0x3d3eb94f	0.046563443
120	0x3ebcf60a	0.36906463
121	0x3d113a17	0.03545579
122	0xbc8a4b38	-0.01688157
123	0xbd377162	-0.044785865
124	0xbe9d8823	-0.30767927
125	0xbe5edc50	-0.2176373
126	0x3f0a0cac	0.53925586
127	0xbe958f62	-0.29210955
128	0xbf17a8a9	-0.5924173
129	0xbe6359a7	-0.22202168
130	0x3f1ebb8a	0.6200491
131	0x3d0881ba	0.033326842
132	0xbcd6c213	-0.026215589
133	0x3d2d3213	0.042284083
134	0x3f21dfed	0.6323231
135	0xbce3bf5d	-0.02780121
136	0x3d65f7ca	0.056144513
137	0x3e19d863	0.15023951
138	0x3fe4cf85	1.787583
139	0x3ebf1339	0.37319353
140	0x3eb6adc1	0.3567944
141	0x3df06312	0.11737646
142	0x3f731ffa	0.9497067
143	0x3dd0a1ac	0.101870865
144	0xbe6a743a	-0.228959
145	0xbe0975da	-0.13423863
146	0x3f7d5b5a	0.98967516
147	0xbda96322	-0.08270861
148	0xbd0716b1	-0.032980625
149	0xbeaa03ee	-0.33206123
150	0xbfbf5ed4	-1.4950814
151	0xbeba5444	-0.36392415
152	0xbe7df11d	-0.24799009
153	0x3e1f0585	0.1552945
154	0x3fa80a03	1.3128055
155	0xbde89037	-0.11355632
156	0x3ecaa34c	0.3957771
157	0xbed8fc2c	-0.42379892
158	0xbf04c5cf	-0.5186433
159	0xbe2485ac	-0.16066617
160	0x3d49436b	0.04913656
161	0xbe6dcb12	-0.23221996
162	0xbe4e48f9	-0.20145024
163	0xbe91821f	-0.28419587
164	0xbf2fd6e2	-0.6868726
165	0x3e039e46	0.12853345
166	0x3f658d68	0.89668894
167	0x3e44869c	0.19191974
168	0xbeaf826d	-0.34279194
169	0xbdc664ff	-0.09687232
170	0x3fac028f	1.3438281
171	0xbe058d66	-0.1304222
172	0x3ef1001e	0.47070402
173	0x3e882c9b	0.2659653
174	0x3ee4b38e	0.4466824
175	0x3e8b6495	0.27225175
176	0x3eeef0da	0.4666813
177	0xbe6acecc	-0.22930449
178	0xbf4102c7	-0.7539486
179	0xbe9f3d3f	-0.31101415
180	0xbc2df04c	-0.010616373
181	0xbd970e75	-0.07375804
182	0x3f5238da	0.82118
183	0x3c8b3618	0.016993567
184	0xbca25d1e	-0.019819792
185	0xbd96728a	-0.07346065
186	0xbfbc32b8	-1.4702978
187	0xbe24b834	-0.16085893
188	0xbde74b6b	-0.11293682
189	0x3ecc9a89	0.3996165
190	0x3f9e1d4e	1.2352693
191	0x3e90a33a	0.28249532
192	0xbe4a1d0a	-0.1973764
193	0xbd6ccffc	-0.057815537
194	0xbce71d66	-0.02821226
195	0xbe3be6dd	-0.18349786
196	0xbe8db7f8	-0.2767942
197	0x3e3dd6ab	0.1853892
198	0xbe7faec7	-0.24969016
199	0x3d0a8dfc	0.033826813
200	0xbcae3fea	-0.021270711
201	0x3da68d46	0.081324145
202	0x3e146010	0.1448977
203	0xbda67309	-0.0812741
204	0xbe82edb4	-0.25571978
205	0x3ed6e216	0.41969365
206	0xbe678cc2	-0.22612289
207	0x3e66fdf7	0.22557817
208	0x3e5a950b	0.21345918
209	0x3d323891	0.043510977
210	0xbe1141b1	-0.14185216
211	0xbe19bad0	-0.1501267
212	0x3e101a81	0.1407261
213	0xbe5d79b5	-0.21628459
214	0xbf4886f8	-0.78330946
215	0xbb9c32b3	-0.004766786
216	0xbe8636e7	-0.26213762
217	0xbe86eab5	-0.26350942
218	0xbef07fce	-0.46972507
219	0xbeae7f43	-0.34081468
220	0x3de540ea	0.11194022
221	0x3ebd314b	0.3695167
222	0x3ecd7194	0.40125716
223	0x3d0ee8a4	0.034889832
224	0xbe9ce323	-0.30642042
225	0x3e093f63	0.13403086
226	0x3ec5ff09	0.3867114
227	0x3e057a6c	0.13034981
228	0x3a37446e	0.0006991093
229	0x3df4ef47	0.11959701
230	0x3fb1c56d	1.3888375
231	0x3ef61bfb	0.48068222
232	0xbe09f9a4	-0.13474137
233	0x3e33abf0	0.17546058
234	0x3f18e52e	0.597247
235	0xbe786b94	-0.24259788
236	0x3ed0cd60	0.4078169
237	0xbe96e3e2	-0.29470736
238	0xbf2a9dbb	-0.6664693
239	0xbc93a205	-0.018021593
240	0x3e369d0e	0.17833349
241	0x3e2fdbd2	0.17173699
242	0xbf83d946	-1.0300682
243	0x3dd082c1	0.10181189
244	0x3f18fe27	0.59762806
245	0xbef7686f	-0.48321864
246	0xbf1ab53e	-0.60432804
247	0xbeb4464d	-0.35209885
248	0x3d37b63b	0.044851523
249	0xbd5dab47	-0.05411842
250	0xbf3f2688	-0.7466817
251	0xbd933350	-0.071875215
252	0x3ec59076	0.38586777
253	0xbeb0279b	-0.34405217
254	0xbf130946	-0.57436025
255	0xbe080c31	-0.132859

net.fc1.bias f4 [64]
0	0xbeaefe7b	-0.34178528
1	0x3ee0e2bd	0.43922988
2	0xbea6e16c	-0.32593858
3	0xbf011d4c	-0.5043533
4	0xbf0338f7	-0.51258796
5	0x3eb50556	0.35355633
6	0x3eec4e28	0.46153378
7	0x3f202a96	0.6256498
8	0x3ef70192	0.48243386
9	0xbef57e45	-0.47947899
10	0xbef2fbb2	-0.47457653
11	0x3eb4a583	0.35282525
12	0x3f2ed31b	0.6829087
13	0x3eb69553	0.356608
14	0xbe04a99e	-0.12955329
15	0xbe8b0a55	-0.2715632
16	0xbf5c0979	-0.85951954
17	0xbe44a949	-0.19205202
18	0xbf13c0a4	-0.5771582
19	0xbe11a5f6	-0.14223465
20	0x3f19414d	0.59865266
21	0xbf0a07bf	-0.5391807
22	0xbd8f3ad4	-0.069936424
23	0x3eadf4db	0.33975872
24	0xbee4fe77	-0.4472539
25	0xbf14a1f6	-0.5805963
26	0xbedfbc8c	-0.43698537
27	0x3f21fc84	0.63275933
28	0xbe10ba7d	-0.1413364
29	0x3f13f616	0.5779737
30	0xbf402626	-0.7505821
31	0x3e30324e	0.1720669
32	0xbe993b94	-0.29928267
33	0xbe00e43f	-0.12587069
34	0xbed9b328	-0.42519498
35	0x3e8613b0	0.26186895
36	0x3e83ea62	0.25764757
37	0xbe85ca89	-0.26131085
38	0xbe8bc690	-0.2729993
39	0xbe9c48de	-0.30524343
40	0x3f1e5be1	0.61858946
41	0xbf073f4d	-0.52830964
42	0x3e9cc20e	0.30616802
43	0xbf31f087	-0.6950764
44	0xbee60349	-0.4492438
45	0x3e5937f8	0.21212757
46	0xbeb272a0	-0.34853077
47	0x3e5f28c3	0.21792893
48	0x3e7614fb	0.24031441
49	0xbed72197	-0.42017815
50	0xbe4a2543	-0.19740777
51	0x3ec43e25	0.38328663
52	0x3eadad75	0.339214
53	0x3e5577bc	0.20846456
54	0xbf5941c2	-0.84865963
55	0xbebe622d	-0.37184277
56	0x3e82637e	0.25466532
57	0xbeb6c881	-0.35699847
58	0x3dd5be5e	0.104367
59	0x3f2b7384	0.6697314
60	0xbf064e58	-0.52463293
61	0xbe9f1dba	-0.31077367
62	0x3ebe0f8c	0.37121236
63	0x3eb6096e	0.3555407

net.fc2.weight f4 [64, 64]
0	0x3eada7ad	0.3391699
1	0xbda598d3	-0.080857895
2	0xbfb45c2d	-1.409063
3	0x3dfdaa0d	0.1238595
4	0x3f17a5ee	0.59237564
5	0xbe8348c1	-0.25641444
6	0x3dc3a823	0.09553554
7	0xbd12a4ca	-0.035801686
8	0x3e4377da	0.19088688
9	0xbd12e9c1	-0.035867456
10	0x3e828f0a	0.25499755
11	0xbe36144e	-0.17781183
12	0x3dabaf81	0.08383084
13	0xbde0b39e	-0.10971759
14	0xbd53ad41	-0.0516789
15	0xbd8111c6	-0.06302218
16	0x3eb6c53c	0.35697353
17	0x3e8d8508	0.27640557
18	0x3f8d40e0	1.1035423
19	0x3df22d2d	0.11825023
20	0x3d87a895	0.06623951
21	0xbf9113fe	-1.1334226
22	0x3dff3740	0.1246171
23	0x3e4371f9	0.19086446
24	0xbf328cab	-0.6974589
25	0xbb9bb7ca	-0.004752134
26	0xbb300f2f	-0.002686452
27	0x3cc879b5	0.024472097
28	0xbde4dc6c	-0.11174855
29	0xbd21ae92	-0.039473124
30	0x3e30cde3	0.1726604
31	0x3c77330c	0.015087854
32	0xbd32fe71	-0.043699685
33	0x3e282aa8	0.16422522
34	0x3eec631a	0.46169358
35	0xbee0ff50	-0.43944788
36	0xbe5d9a1c	-0.2164082
37	0x3e012425	0.12611444
38	0xbde36329	-0.11102898
39	0x3ebe7fd6	0.37206906
40	0xbd9296cc	-0.071576685
41	0xbe421559	-0.18953456
42	0xbe66f2ef	-0.2255361
43	0x3cc08a2d	0.023503387
44	0xbe96f34f	-0.29482505
45	0xb9a8b1bc	-0.0003217588
46	0xbea5e443	-0.32400712
47	0xbf162c35	-0.58661205
48	0xbe576f09	-0.2103845
49	0x3c01b971	0.007917748
50	0x3d50fbdf	0.051021453
51	0xbcb2a27c	-0.021805994
52	0xbe9ea4d2	-0.30985123
53	0xbded2b8c	-0.115805715
54	0xbf0db574	-0.55355
55	0xbebd103a	-0.36926442
56	0x3d5ed415	0.054401476
57	0x3f155a4f	0.58340925
58	0x3eb5db40	0.35518837
59	0x3e19b71d	0.15011258
60	0xbecb7964	-0.3974105
61	0xbe9609a6	-0.29304236
62	0x3d850413	0.06494918
63	0x3e695aaf	0.227885
64	0xbf8208d4	-1.0158944
65	0x3eaf04e1	0.3418341
66	0xbfee9d77	-1.8641804
67	0xbe0d184f	-0.13778804
68	0xbf345711	-0.7044535
69	0x3e670be4	0.2256313
70	0x3e19b987	0.1501218
71	0x3e988721	0.29790595
72	0x3e013538	0.12617958
73	0xbee0eea7	-0.43932077
74	0xbfdbfd95	-1.7186762
75	0x3e842110	0.25806475
76	0x3eb20559	0.34769705
77	0x3d556baa	0.05210463
78	0x3e536246	0.20642957
79	0x3ee48b69	0.44637612
80	0xbeeb8036	-0.45996255
81	0xbd5fd1ef	-0.054643568
82	0xbf73a7b7	-0.9517779
83	0x3e9270f3	0.28601798
84	0x3dfa3467	0.12217026
85	0xc0261850	-2.595234
86	0x3e6f743f	0.23384188
87	0x3e29ebd3	0.16593866
88	0xbe0259d5	-0.1272958
89	0xbedfc96e	-0.43708366
90	0xc01d9956	-2.462484
91	0x3e794122	0.24341252
92	0x3dbe7026	0.09298734
93	0x3e9ec35a	0.31008416
94	0xbf410588	-0.75399065
95	0x3dea7842	0.114487186
96	0x3cc8c260	0.024506748
97	0xbe27ae86	-0.16375169
98	0xbeae03ef	-0.33987376
99	0x3e043479	0.12910642
100	0x3e84ee5c	0.25963104
101	0xbf9bf7be	-1.218498
102	0xbe40cb80	-0.18827629
103	0xbdbfb972	-0.09361543
104	0x3e97b2bf	0.2962856
105	0xbe0fec4f	-0.14054988
106	0x3e1a2e8e	0.15056822
107	0xbe8b4839	-0.2720354
108	0xc00e3590	-2.2220192
109	0x3e18a358	0.1490606
110	0xc011931b	-2.2746036
111	0x3e542ce5	0.20720251
112	0x3e9dd771	0.3082843
113	0xbcded253	-0.0271999
114	0x3cc42427	0.02394302
115	0x3e326145	0.17419918
116	0x3df91780	0.121626854
117	0x3d8c4f40	0.06851053
118	0xbdd68317	-0.10474222
119	0xbe9e1fb1	-0.30883554
120	0x3c9e1f23	0.019301957
121	0xbe086c8e	-0.1332266
122	0xbcce40c0	-0.02517736
123	0x3eb57631	0.35441735
124	0xbf477803	-0.779175
125	0xbf2d2480	-0.6763382
126	0x3e44efef	0.19232152
127	0xb7831060	-1.5624042e-05
128	0xbc47bb70	-0.012190685
129	0xbe1392a4	-0.14411408
130	0x3d9c1981	0.07622052
131	0x3d89d76e	0.06730543
132	0x3dd34316	0.1031553
133	0x3cc70729	0.024295406
134	0xbdcac77a	-0.099013284
135	0x3d9558d4	0.07292333
136	0xbc223800	-0.009901047
137	0x3d72cc80	0.059277058
138	0xbdf10be6	-0.117698476
139	0xbd89eba7	-0.067344
140	0xbe1dd5c8	-0.15413582
141	0xbd8a66a7	-0.06757861
142	0x3cdce8a0	0.026966393
143	0xbe04a1ad	-0.129523
144	0x3d233510	0.039845526
145	0x3d3f61d5	0.04672416
146	0x3c8ea718	0.01741366
147	0xbdab490c	-0.08363542
148	0xbde88755	-0.113539375
149	0xbda25751	-0.079268105
150	0x3cc04581	0.023470642
151	0x3dd4955a	0.10380049
152	0x3d612501	0.05496693
153	0xbd28d10d	-0.04121499
154	0x3cd26358	0.025682136
155	0xbe2645a7	-0.16237508
156	0xbdfd101a	-0.12356587
157	0x3d07b634	0.033132747
158	0xbdd14c96	-0.10219686
159	0x3d36061f	0.04443943
160	0xbdb4b7f8	-0.08824152
161	0xbd7d9964	-0.061913863
162	0xbdd2dd48	-0.10296112
163	0x3d246daa	0.040143646
164	0xbc99658b	-0.018725177
165	0x3da1e069	0.07904131
166	0x3d77d3e2	0.0605048
167	0x3d8da7dc	0.06916782
168	0xbc5190b9	-0.012790852
169	0xbd1e4c94	-0.03864725
170	0xbd32aae1	-0.043619994
171	0xbc7237ce	-0.014783813
172	0x3d36bf05	0.044615764
173	0xbdf3a42e	-0.11896549
174	0x3d955295	0.07291142
175	0xbd3830ce	-0.04496842
176	0xbdf8e8a5	-0.121537484
177	0xbd8a82c4	-0.06763223
178	0x3dbf644a	0.093453005
179	0x3d98f4b2	0.07468547
180	0xbe0ee6a9	-0.13955177
181	0x3d68836d	0.056765962
182	0x3d33b45c	0.043873176
183	0x3d5c5754	0.05379422
184	0x3db6da3f	0.08928346
185	0xbd89f8a6	-0.06736879
186	0x3caf4c84	0.02139879
187	0x3ca1d117	0.019753022
188	0xbd844477	-0.06458371
189	0x3cd120fd	0.025528425
190	0xbd99ffa4	-0.07519463
191	0x3d4190c1	0.04725719
192	0xbd0e0e88	-0.034681827
193	0xbd9fc2ba	-0.07800813
194	0x3d00e540	0.03146863
195	0x3c53aadf	0.012919157
196	0xbd7a2610	-0.061071455
197	0x3c350a30	0.011049792
198	0x3d28164c	0.04103689
199	0xbd3404c4	-0.043949857
200	0x3bd60186	0.0065309433
201	0xbcf6f9b8	-0.030148372
202	0x3c4b3f50	0.012405232
203	0xbdf9f8e3	-0.122056745
204	0xbdd70b7e	-0.10500239
205	0xbd81f174	-0.06344882
206	0x3dab0594	0.08350673
207	0xbd09c564	-0.033635512
208	0xb9b2f000	-0.0003412962
209	0xbd780fcc	-0.06056194
210	0x3dff8ff0	0.12478626
211	0x3dfa070e	0.12208377
212	0xbe00a4a7	-0.1256281
213	0xbdcf8810	-0.10133374
214	0xbdfea0d3	-0.124330185
215	0xba1e0800	-0.0006028414
216	0xbd0282c4	-0.03186299
217	0xbda7904e	-0.08181821
218	0xbd832695	-0.06403843
219	0xbc00dd92	-0.0078653265
220	0xbd85c1f4	-0.06531134
221	0xbb78a962	-0.0037942757
222	0xbcead1c8	-0.028664485
223	0xbdbc9442	-0.092079654
224	0xbc69a029	-0.014259377
225	0x3dd27f84	0.10278228
226	0xbdad1388	-0.08450991
227	0x3bbe3200	0.0058043003
228	0xbd9ee549	-0.077585764
229	0x3dbab6ec	0.09116921
230	0xbdf2e226	-0.11859541
231	0xbdf56ad2	-0.11983265
232	0x3dbbb9db	0.091663085
233	0xbda1f7f8	-0.079086244
234	0xbbf6730b	-0.0075210384
235	0xbc30c140	-0.010788262
236	0xbcd7b678	-0.026332125
237	0xbd6c4ce7	-0.057690527
238	0x3da2ac3c	0.07943007
239	0x3bc3c6c0	0.0059746206
240	0xbe1cddf6	-0.15319046
241	0xbd9721d8	-0.07379502
242	0xbd2e8a7c	-0.042612538
243	0x3d01b28d	0.03166442
244	0xbde5e452	-0.11225189
245	0x3db12ab7	0.08650725
246	0xbce41328	-0.027841166
247	0xbcb7df18	-0.022445247
248	0x3d881ae0	0.06645751
249	0x3d020aae	0.031748466
250	0x3dd91e6a	0.10601504
251	0x3d271a19	0.040796373
252	0xbd1b5134	-0.03791924
253	0xbdea3637	-0.11436122
254	0xbd2700f0	-0.04077238
255	0x3d938e46	0.07204871

net.fc2.bias f4 [64]
0	0x3d991090	0.07473862
1	0x3ed3b4e7	0.41348955
2	0xbd6708dc	-0.056404933
3	0xbdd53f0a	-0.10412414
4	0x3eae59fa	0.34053022
5	0x3dc709ce	0.09718667
6	0x3eb295d4	0.34879935
7	0xbdc3c667	-0.095593266
8	0x3ec317fa	0.3810423
9	0xbebd6a35	-0.36995092
10	0x3df3cc0e	0.11904155
11	0x3bd4b7fe	0.00649166
12	0xbdbf7d88	-0.09350115
13	0x3cb0336c	0.021508895
14	0x3ecb3106	0.3968584
15	0x3ea5da8d	0.32393304
16	0xbde01ca6	-0.10942964
17	0xbd5a95fd	-0.053365696
18	0x3ec3cc57	0.38241836
19	0xbd6d99af	-0.058007892
20	0xbda39b9f	-0.07988667
21	0xbcfe95fb	-0.031077376
22	0x3eae5e5d	0.34056368
23	0x3eca251d	0.3948144
24	0x3ebbc69b	0.3667496
25	0x3d1e33c5	0.03862359
26	0x3e9f8c96	0.31161946
27	0xbd4e9865	-0.050438304
28	0x3ead112a	0.33802158
29	0x3e988964	0.2979232
30	0x3d81e158	0.06341809
31	0x3e6273d9	0.22114505
32	0xbd84de1f	-0.06487679
33	0xbd87c19a	-0.066287234
34	0x3ec4a9b1	0.38410714
35	0x3e0a97a7	0.13534413
36	0x3eb49bff	0.35275266
37	0xbdac72da	-0.08420344
38	0x3d2afe57	0.041746464
39	0x3dc84c34	0.097801596
40	0xbd00ebc9	-0.031474862
41	0x3cd5aca8	0.026083305
42	0x3e48dc8b	0.1961538
43	0x3ed2eb4a	0.41195136
44	0x3d11421a	0.03546343
45	0x3ec9e2d8	0.3943088
46	0x3ecb137f	0.39663312
47	0xbd874f7a	-0.06606956
48	0xbd1e4342	-0.03863836
49	0x3df79eda	0.120908454
50	0x3d71c0a6	0.059021614
51	0xbdf1823d	-0.11792419
52	0x3d81db66	0.06340675
53	0x3ea66d9b	0.32505497
54	0xbcaad417	-0.020853085
55	0xbe348125	-0.1762739
56	0x3e5bdd64	0.21471173
57	0xbd92024b	-0.071293436
58	0x3d8760a3	0.06610229
59	0xbe03b0d0	-0.12860417
60	0x3e7ebbae	0.24876282
61	0xbd074465	-0.03302421
62	0xbc93bfaa	-0.018035728
63	0x3e982661	0.2971678

net.out.weight f4 [2, 64]
0	0x3eb1b703	0.3470994
1	0x3da517b9	0.08061165
2	0xbd611a4f	-0.05495673
3	0xbc97d6f2	-0.018535111
4	0x3f062446	0.523991
5	0x3eb4b686	0.35295504
6	0x3eb5bd72	0.35496098
7	0xbc8d24b4	-0.017229415
8	0x3f2077dc	0.6268289
9	0xbf98ce2c	-1.1937919
10	0x3eefe3d0	0.46853495
11	0xbe47c3ff	-0.1950836
12	0x3db221de	0.08697866
13	0x3d9f244a	0.077705935
14	0x3ecec3dd	0.40383807
15	0x3f2390d3	0.6389286
16	0xbf397647	-0.724461
17	0x3c49fed7	0.012328825
18	0x3ef34eef	0.4752116
19	0xbf1f0420	-0.6211567
20	0x3d86e5a9	0.06586773
21	0x3d0d0bfa	0.03443525
22	0x3f5a1300	0.8518524
23	0x3eebf719	0.46086958
24	0x3f25f6fa	0.6482998
25	0xbd9d6f01	-0.07687188
26	0x3efc75de	0.49308676
27	0x3d27b821	0.040947083
28	0x3ed87488	0.42276406
29	0x3e81c3d3	0.25344715
30	0x3edf2b12	0.43587548
31	0x3efb6bf8	0.4910581
32	0xbb363686	-0.0027803495
33	0xbdd20d9e	-0.102565035
34	0x3eef8bce	0.4678635
35	0x3eb696ef	0.35662028
36	0x3e596b2f	0.21232294
37	0x3d733eb1	0.05938596
38	0x3e7763a0	0.24159098
39	0x3d14f665	0.036367793
40	0x3ca52ae1	0.020162048
41	0x3bf29718	0.0074032657
42	0x3f1a6fa7	0.6032662
43	0x3eaae0a6	0.33374518
44	0xbf98b470	-1.1930065
45	0x3f39a80b	0.7252204
46	0x3e7421cf	0.23841022
47	0xbc25a339	-0.010109716
48	0xbd9eaf49	-0.07748277
49	0x3d94bb10	0.07262242
50	0xbdc7e707	-0.09760862
51	0xbf941702	-1.1569521
52	0xbdca0a14	-0.098652035
53	0x3f49c565	0.78816825
54	0xbc16c6e6	-0.0092026945
55	0xbb4ef1ac	-0.0031577153
56	0x3ebc0c6d	0.3672823
57	0xbbe5c147	-0.007011566
58	0xbc791c43	-0.015204492
59	0xbd9d49f1	-0.07680119
60	0x3eb1a06e	0.3469271
61	0xbd39f23f	-0.04539704
62	0x3ba48f89	0.0050219935
63	0x3e9e6efd	0.30944052
64	0xbe800e7a	-0.25011045
65	0x3f12a1ee	0.57278335
66	0xbda295d6	-0.07938735
67	0xbd542244	-0.05179049
68	0x3f104f69	0.5637117
69	0x3ef653ab	0.4811071
70	0x3f272433	0.6528961
71	0x3c7d02c1	0.015442551
72	0x3f09362d	0.5359829
73	0xbfb64a0e	-1.424135
74	0x3ef8e0dd	0.48609057
75	0xbeec5d6b	-0.46165022
76	0xbdc8b80c	-0.09800729
77	0xbd9c6869	-0.07637102
78	0x3ee8b55a	0.4545086
79	0xbebc327f	-0.36757275
80	0xbfe99ab8	-1.8250341
81	0x3daaf79d	0.0834801
82	0x3f097fb0	0.5371046
83	0xbbd80e11	-0.0065934737
84	0xbd9cc109	-0.07654006
85	0xbbf47bfe	-0.00746107
86	0x3ef20b69	0.4727433
87	0x3ee78e52	0.4522577
88	0x3ef912a2	0.48647028
89	0xbdc715e4	-0.09720972
90	0x3eb8ceaa	0.36095172
91	0xbcc0140d	-0.023447061
92	0x3f38f765	0.72252494
93	0x3f369eff	0.7133636
94	0x3efec20f	0.4975743
95	0x3e9a21ea	0.30104
96	0xbcab9ee0	-0.020949781
97	0xbde42460	-0.111397505
98	0x3f0322fa	0.51225245
99	0xbf483b68	-0.78215647
100	0x3ebd9c59	0.37033346
101	0xbd122624	-0.035680905
102	0xbe52de7d	-0.20592685
103	0xbda8c175	-0.08240024
104	0xbd0c7aea	-0.034296907
105	0xbc69f7bf	-0.014280259
106	0x3f003778	0.5008464
107	0x3ee43196	0.4456908
108	0xbef2ce09	-0.47422817
109	0x3f194d44	0.59883523
110	0x3f2e38be	0.6805533
111	0x3a52e700	0.0008045286
112	0xbd9fa702	-0.07795526
113	0x3b8301e0	0.0039980263
114	0x3d5231d0	0.051317036
115	0x3e0807a1	0.1328416
116	0xbc945eab	-0.018111547
117	0x3e62a523	0.22133307
118	0xbc85b2d9	-0.016320633
119	0xbdd05333	-0.10172119
120	0x3ef1a3af	0.47195193
121	0xbd498883	-0.049202453
122	0xbd25b4b4	-0.040455535
123	0x3bc8a998	0.006123733
124	0x3f24c6a1	0.64365584
125	0x3de39e6a	0.111141995
126	0xbd841f52	-0.064512864
127	0x3f0e2f67	0.5554108

net.out.bias f4 [2]
0	0x3ec19589	0.378094
1	0x3ee5d679	0.44890192
